MAE(
  (encoder): ViT(
    (to_patch_embedding): Sequential(
      (0): Rearrange('b c (h p1) (w p2) -> b (h w) (p1 p2 c)', p1=32, p2=32)
      (1): Linear(in_features=3072, out_features=1024, bias=True)
    )
    (dropout): Dropout(p=0.0, inplace=False)
    (transformer): Transformer(
      (layers): ModuleList(
        (0): ModuleList(
          (0): PreNorm(
            (norm): LayerNorm((1024,), eps=1e-05, elementwise_affine=True)
            (fn): Attention(
              (attend): Softmax(dim=-1)
              (dropout): Dropout(p=0.0, inplace=False)
              (to_qkv): Linear(in_features=1024, out_features=1536, bias=False)
              (to_out): Sequential(
                (0): Linear(in_features=512, out_features=1024, bias=True)
                (1): Dropout(p=0.0, inplace=False)
              )
            )
          )
          (1): PreNorm(
            (norm): LayerNorm((1024,), eps=1e-05, elementwise_affine=True)
            (fn): FeedForward(
              (net): Sequential(
                (0): Linear(in_features=1024, out_features=2048, bias=True)
                (1): GELU()
                (2): Dropout(p=0.0, inplace=False)
                (3): Linear(in_features=2048, out_features=1024, bias=True)
                (4): Dropout(p=0.0, inplace=False)
              )
            )
          )
        )
        (1): ModuleList(
          (0): PreNorm(
            (norm): LayerNorm((1024,), eps=1e-05, elementwise_affine=True)
            (fn): Attention(
              (attend): Softmax(dim=-1)
              (dropout): Dropout(p=0.0, inplace=False)
              (to_qkv): Linear(in_features=1024, out_features=1536, bias=False)
              (to_out): Sequential(
                (0): Linear(in_features=512, out_features=1024, bias=True)
                (1): Dropout(p=0.0, inplace=False)
              )
            )
          )
          (1): PreNorm(
            (norm): LayerNorm((1024,), eps=1e-05, elementwise_affine=True)
            (fn): FeedForward(
              (net): Sequential(
                (0): Linear(in_features=1024, out_features=2048, bias=True)
                (1): GELU()
                (2): Dropout(p=0.0, inplace=False)
                (3): Linear(in_features=2048, out_features=1024, bias=True)
                (4): Dropout(p=0.0, inplace=False)
              )
            )
          )
        )
        (2): ModuleList(
          (0): PreNorm(
            (norm): LayerNorm((1024,), eps=1e-05, elementwise_affine=True)
            (fn): Attention(
              (attend): Softmax(dim=-1)
              (dropout): Dropout(p=0.0, inplace=False)
              (to_qkv): Linear(in_features=1024, out_features=1536, bias=False)
              (to_out): Sequential(
                (0): Linear(in_features=512, out_features=1024, bias=True)
                (1): Dropout(p=0.0, inplace=False)
              )
            )
          )
          (1): PreNorm(
            (norm): LayerNorm((1024,), eps=1e-05, elementwise_affine=True)
            (fn): FeedForward(
              (net): Sequential(
                (0): Linear(in_features=1024, out_features=2048, bias=True)
                (1): GELU()
                (2): Dropout(p=0.0, inplace=False)
                (3): Linear(in_features=2048, out_features=1024, bias=True)
                (4): Dropout(p=0.0, inplace=False)
              )
            )
          )
        )
        (3): ModuleList(
          (0): PreNorm(
            (norm): LayerNorm((1024,), eps=1e-05, elementwise_affine=True)
            (fn): Attention(
              (attend): Softmax(dim=-1)
              (dropout): Dropout(p=0.0, inplace=False)
              (to_qkv): Linear(in_features=1024, out_features=1536, bias=False)
              (to_out): Sequential(
                (0): Linear(in_features=512, out_features=1024, bias=True)
                (1): Dropout(p=0.0, inplace=False)
              )
            )
          )
          (1): PreNorm(
            (norm): LayerNorm((1024,), eps=1e-05, elementwise_affine=True)
            (fn): FeedForward(
              (net): Sequential(
                (0): Linear(in_features=1024, out_features=2048, bias=True)
                (1): GELU()
                (2): Dropout(p=0.0, inplace=False)
                (3): Linear(in_features=2048, out_features=1024, bias=True)
                (4): Dropout(p=0.0, inplace=False)
              )
            )
          )
        )
        (4): ModuleList(
          (0): PreNorm(
            (norm): LayerNorm((1024,), eps=1e-05, elementwise_affine=True)
            (fn): Attention(
              (attend): Softmax(dim=-1)
              (dropout): Dropout(p=0.0, inplace=False)
              (to_qkv): Linear(in_features=1024, out_features=1536, bias=False)
              (to_out): Sequential(
                (0): Linear(in_features=512, out_features=1024, bias=True)
                (1): Dropout(p=0.0, inplace=False)
              )
            )
          )
          (1): PreNorm(
            (norm): LayerNorm((1024,), eps=1e-05, elementwise_affine=True)
            (fn): FeedForward(
              (net): Sequential(
                (0): Linear(in_features=1024, out_features=2048, bias=True)
                (1): GELU()
                (2): Dropout(p=0.0, inplace=False)
                (3): Linear(in_features=2048, out_features=1024, bias=True)
                (4): Dropout(p=0.0, inplace=False)
              )
            )
          )
        )
        (5): ModuleList(
          (0): PreNorm(
            (norm): LayerNorm((1024,), eps=1e-05, elementwise_affine=True)
            (fn): Attention(
              (attend): Softmax(dim=-1)
              (dropout): Dropout(p=0.0, inplace=False)
              (to_qkv): Linear(in_features=1024, out_features=1536, bias=False)
              (to_out): Sequential(
                (0): Linear(in_features=512, out_features=1024, bias=True)
                (1): Dropout(p=0.0, inplace=False)
              )
            )
          )
          (1): PreNorm(
            (norm): LayerNorm((1024,), eps=1e-05, elementwise_affine=True)
            (fn): FeedForward(
              (net): Sequential(
                (0): Linear(in_features=1024, out_features=2048, bias=True)
                (1): GELU()
                (2): Dropout(p=0.0, inplace=False)
                (3): Linear(in_features=2048, out_features=1024, bias=True)
                (4): Dropout(p=0.0, inplace=False)
              )
            )
          )
        )
      )
    )
    (to_latent): Identity()
    (mlp_head): Sequential(
      (0): LayerNorm((1024,), eps=1e-05, elementwise_affine=True)
      (1): Linear(in_features=1024, out_features=1000, bias=True)
    )
  )
  (to_patch): Rearrange('b c (h p1) (w p2) -> b (h w) (p1 p2 c)', p1=32, p2=32)
  (patch_to_emb): Linear(in_features=3072, out_features=1024, bias=True)
  (enc_to_dec): Linear(in_features=1024, out_features=512, bias=True)
  (decoder): Transformer(
    (layers): ModuleList(
      (0): ModuleList(
        (0): PreNorm(
          (norm): LayerNorm((512,), eps=1e-05, elementwise_affine=True)
          (fn): Attention(
            (attend): Softmax(dim=-1)
            (to_qkv): Linear(in_features=512, out_features=1536, bias=False)
            (to_out): Sequential(
              (0): Linear(in_features=512, out_features=512, bias=True)
              (1): Dropout(p=0.0, inplace=False)
            )
          )
        )
        (1): PreNorm(
          (norm): LayerNorm((512,), eps=1e-05, elementwise_affine=True)
          (fn): FeedForward(
            (net): Sequential(
              (0): Linear(in_features=512, out_features=2048, bias=True)
              (1): GELU()
              (2): Dropout(p=0.0, inplace=False)
              (3): Linear(in_features=2048, out_features=512, bias=True)
              (4): Dropout(p=0.0, inplace=False)
            )
          )
        )
      )
      (1): ModuleList(
        (0): PreNorm(
          (norm): LayerNorm((512,), eps=1e-05, elementwise_affine=True)
          (fn): Attention(
            (attend): Softmax(dim=-1)
            (to_qkv): Linear(in_features=512, out_features=1536, bias=False)
            (to_out): Sequential(
              (0): Linear(in_features=512, out_features=512, bias=True)
              (1): Dropout(p=0.0, inplace=False)
            )
          )
        )
        (1): PreNorm(
          (norm): LayerNorm((512,), eps=1e-05, elementwise_affine=True)
          (fn): FeedForward(
            (net): Sequential(
              (0): Linear(in_features=512, out_features=2048, bias=True)
              (1): GELU()
              (2): Dropout(p=0.0, inplace=False)
              (3): Linear(in_features=2048, out_features=512, bias=True)
              (4): Dropout(p=0.0, inplace=False)
            )
          )
        )
      )
      (2): ModuleList(
        (0): PreNorm(
          (norm): LayerNorm((512,), eps=1e-05, elementwise_affine=True)
          (fn): Attention(
            (attend): Softmax(dim=-1)
            (to_qkv): Linear(in_features=512, out_features=1536, bias=False)
            (to_out): Sequential(
              (0): Linear(in_features=512, out_features=512, bias=True)
              (1): Dropout(p=0.0, inplace=False)
            )
          )
        )
        (1): PreNorm(
          (norm): LayerNorm((512,), eps=1e-05, elementwise_affine=True)
          (fn): FeedForward(
            (net): Sequential(
              (0): Linear(in_features=512, out_features=2048, bias=True)
              (1): GELU()
              (2): Dropout(p=0.0, inplace=False)
              (3): Linear(in_features=2048, out_features=512, bias=True)
              (4): Dropout(p=0.0, inplace=False)
            )
          )
        )
      )
      (3): ModuleList(
        (0): PreNorm(
          (norm): LayerNorm((512,), eps=1e-05, elementwise_affine=True)
          (fn): Attention(
            (attend): Softmax(dim=-1)
            (to_qkv): Linear(in_features=512, out_features=1536, bias=False)
            (to_out): Sequential(
              (0): Linear(in_features=512, out_features=512, bias=True)
              (1): Dropout(p=0.0, inplace=False)
            )
          )
        )
        (1): PreNorm(
          (norm): LayerNorm((512,), eps=1e-05, elementwise_affine=True)
          (fn): FeedForward(
            (net): Sequential(
              (0): Linear(in_features=512, out_features=2048, bias=True)
              (1): GELU()
              (2): Dropout(p=0.0, inplace=False)
              (3): Linear(in_features=2048, out_features=512, bias=True)
              (4): Dropout(p=0.0, inplace=False)
            )
          )
        )
      )
      (4): ModuleList(
        (0): PreNorm(
          (norm): LayerNorm((512,), eps=1e-05, elementwise_affine=True)
          (fn): Attention(
            (attend): Softmax(dim=-1)
            (to_qkv): Linear(in_features=512, out_features=1536, bias=False)
            (to_out): Sequential(
              (0): Linear(in_features=512, out_features=512, bias=True)
              (1): Dropout(p=0.0, inplace=False)
            )
          )
        )
        (1): PreNorm(
          (norm): LayerNorm((512,), eps=1e-05, elementwise_affine=True)
          (fn): FeedForward(
            (net): Sequential(
              (0): Linear(in_features=512, out_features=2048, bias=True)
              (1): GELU()
              (2): Dropout(p=0.0, inplace=False)
              (3): Linear(in_features=2048, out_features=512, bias=True)
              (4): Dropout(p=0.0, inplace=False)
            )
          )
        )
      )
      (5): ModuleList(
        (0): PreNorm(
          (norm): LayerNorm((512,), eps=1e-05, elementwise_affine=True)
          (fn): Attention(
            (attend): Softmax(dim=-1)
            (to_qkv): Linear(in_features=512, out_features=1536, bias=False)
            (to_out): Sequential(
              (0): Linear(in_features=512, out_features=512, bias=True)
              (1): Dropout(p=0.0, inplace=False)
            )
          )
        )
        (1): PreNorm(
          (norm): LayerNorm((512,), eps=1e-05, elementwise_affine=True)
          (fn): FeedForward(
            (net): Sequential(
              (0): Linear(in_features=512, out_features=2048, bias=True)
              (1): GELU()
              (2): Dropout(p=0.0, inplace=False)
              (3): Linear(in_features=2048, out_features=512, bias=True)
              (4): Dropout(p=0.0, inplace=False)
            )
          )
        )
      )
    )
  )
  (decoder_pos_emb): Embedding(65, 512)
  (to_pixels): Linear(in_features=512, out_features=3072, bias=True)
)/root/miniconda3/envs/myconda/lib/python3.8/site-packages/torchvision/transforms/transforms.py:890: UserWarning: Argument interpolation should be of type InterpolationMode instead of int. Please, use InterpolationMode enum.
  warnings.warn(
/root/miniconda3/envs/myconda/lib/python3.8/site-packages/torch/nn/_reduction.py:42: UserWarning: size_average and reduce args will be deprecated, please use reduction='none' instead.
…
