…
upsample_3_2.weight
True
upsample_3_2.bias
True
upsample_4_2.weight
True
upsample_4_2.bias
True
conv_out.seq.0.weight
True
conv_out.seq.1.weight
True
conv_out.seq.1.bias
True
conv_cat1.seq.0.weight
True
conv_cat1.seq.1.weight
True
conv_cat1.seq.1.bias
True
conv_cat2.seq.0.weight
True
conv_cat2.seq.1.weight
True
conv_cat2.seq.1.bias
True
conv_cat3.seq.0.weight
True
conv_cat3.seq.1.weight
True
conv_cat3.seq.1.bias
True
conv_cat4.seq.0.weight
True
conv_cat4.seq.1.weight
True
conv_cat4.seq.1.bias
True
ECG_mae_segmentation_U_12(
  (encoder): EncoderMAE(
    (patch_embed): PatchEmbed_1D(
      (proj): Conv1d(1, 40, kernel_size=(12,), stride=(12,))
      (norm): Identity()
    )
    (blocks): ModuleList(
      (0): Block(
        (norm1): LayerNorm((40,), eps=1e-05, elementwise_affine=True)
        (attn): Attention(
          (qkv): Linear(in_features=40, out_features=120, bias=True)
          (attn_drop): Dropout(p=0.0, inplace=False)
          (proj): Linear(in_features=40, out_features=40, bias=True)
          (proj_drop): Dropout(p=0.0, inplace=False)
        )
        (ls1): Identity()
        (drop_path1): Identity()
        (norm2): LayerNorm((40,), eps=1e-05, elementwise_affine=True)
        (mlp): Mlp(
          (fc1): Linear(in_features=40, out_features=80, bias=True)
          (act): GELU()
          (drop1): Dropout(p=0.0, inplace=False)
          (fc2): Linear(in_features=80, out_features=40, bias=True)
          (drop2): Dropout(p=0.0, inplace=False)
        )
        (ls2): Identity()
        (drop_path2): Identity()
      )
      (1): Block(
        (norm1): LayerNorm((40,), eps=1e-05, elementwise_affine=True)
        (attn): Attention(
          (qkv): Linear(in_features=40, out_features=120, bias=True)
          (attn_drop): Dropout(p=0.0, inplace=False)
          (proj): Linear(in_features=40, out_features=40, bias=True)
          (proj_drop): Dropout(p=0.0, inplace=False)
        )
        (ls1): Identity()
        (drop_path1): Identity()
        (norm2): LayerNorm((40,), eps=1e-05, elementwise_affine=True)
        (mlp): Mlp(
          (fc1): Linear(in_features=40, out_features=80, bias=True)
          (act): GELU()
          (drop1): Dropout(p=0.0, inplace=False)
          (fc2): Linear(in_features=80, out_features=40, bias=True)
          (drop2): Dropout(p=0.0, inplace=False)
        )
        (ls2): Identity()
        (drop_path2): Identity()
      )
      (2): Block(
        (norm1): LayerNorm((40,), eps=1e-05, elementwise_affine=True)
        (attn): Attention(
          (qkv): Linear(in_features=40, out_features=120, bias=True)
          (attn_drop): Dropout(p=0.0, inplace=False)
          (proj): Linear(in_features=40, out_features=40, bias=True)
          (proj_drop): Dropout(p=0.0, inplace=False)
        )
        (ls1): Identity()
        (drop_path1): Identity()
        (norm2): LayerNorm((40,), eps=1e-05, elementwise_affine=True)
        (mlp): Mlp(
          (fc1): Linear(in_features=40, out_features=80, bias=True)
          (act): GELU()
          (drop1): Dropout(p=0.0, inplace=False)
          (fc2): Linear(in_features=80, out_features=40, bias=True)
          (drop2): Dropout(p=0.0, inplace=False)
        )
        (ls2): Identity()
        (drop_path2): Identity()
      )
      (3): Block(
        (norm1): LayerNorm((40,), eps=1e-05, elementwise_affine=True)
        (attn): Attention(
          (qkv): Linear(in_features=40, out_features=120, bias=True)
          (attn_drop): Dropout(p=0.0, inplace=False)
          (proj): Linear(in_features=40, out_features=40, bias=True)
          (proj_drop): Dropout(p=0.0, inplace=False)
        )
        (ls1): Identity()
        (drop_path1): Identity()
        (norm2): LayerNorm((40,), eps=1e-05, elementwise_affine=True)
        (mlp): Mlp(
          (fc1): Linear(in_features=40, out_features=80, bias=True)
          (act): GELU()
          (drop1): Dropout(p=0.0, inplace=False)
          (fc2): Linear(in_features=80, out_features=40, bias=True)
          (drop2): Dropout(p=0.0, inplace=False)
        )
        (ls2): Identity()
        (drop_path2): Identity()
      )
      (4): Block(
        (norm1): LayerNorm((40,), eps=1e-05, elementwise_affine=True)
        (attn): Attention(
          (qkv): Linear(in_features=40, out_features=120, bias=True)
          (attn_drop): Dropout(p=0.0, inplace=False)
          (proj): Linear(in_features=40, out_features=40, bias=True)
          (proj_drop): Dropout(p=0.0, inplace=False)
        )
        (ls1): Identity()
        (drop_path1): Identity()
        (norm2): LayerNorm((40,), eps=1e-05, elementwise_affine=True)
        (mlp): Mlp(
          (fc1): Linear(in_features=40, out_features=80, bias=True)
          (act): GELU()
          (drop1): Dropout(p=0.0, inplace=False)
          (fc2): Linear(in_features=80, out_features=40, bias=True)
          (drop2): Dropout(p=0.0, inplace=False)
        )
        (ls2): Identity()
        (drop_path2): Identity()
      )
      (5): Block(
        (norm1): LayerNorm((40,), eps=1e-05, elementwise_affine=True)
        (attn): Attention(
          (qkv): Linear(in_features=40, out_features=120, bias=True)
          (attn_drop): Dropout(p=0.0, inplace=False)
          (proj): Linear(in_features=40, out_features=40, bias=True)
          (proj_drop): Dropout(p=0.0, inplace=False)
        )
        (ls1): Identity()
        (drop_path1): Identity()
        (norm2): LayerNorm((40,), eps=1e-05, elementwise_affine=True)
        (mlp): Mlp(
          (fc1): Linear(in_features=40, out_features=80, bias=True)
          (act): GELU()
          (drop1): Dropout(p=0.0, inplace=False)
          (fc2): Linear(in_features=80, out_features=40, bias=True)
          (drop2): Dropout(p=0.0, inplace=False)
        )
        (ls2): Identity()
        (drop_path2): Identity()
      )
      (6): Block(
        (norm1): LayerNorm((40,), eps=1e-05, elementwise_affine=True)
        (attn): Attention(
          (qkv): Linear(in_features=40, out_features=120, bias=True)
          (attn_drop): Dropout(p=0.0, inplace=False)
          (proj): Linear(in_features=40, out_features=40, bias=True)
          (proj_drop): Dropout(p=0.0, inplace=False)
        )
        (ls1): Identity()
        (drop_path1): Identity()
        (norm2): LayerNorm((40,), eps=1e-05, elementwise_affine=True)
        (mlp): Mlp(
          (fc1): Linear(in_features=40, out_features=80, bias=True)
          (act): GELU()
          (drop1): Dropout(p=0.0, inplace=False)
          (fc2): Linear(in_features=80, out_features=40, bias=True)
          (drop2): Dropout(p=0.0, inplace=False)
        )
        (ls2): Identity()
        (drop_path2): Identity()
      )
      (7): Block(
        (norm1): LayerNorm((40,), eps=1e-05, elementwise_affine=True)
        (attn): Attention(
          (qkv): Linear(in_features=40, out_features=120, bias=True)
          (attn_drop): Dropout(p=0.0, inplace=False)
          (proj): Linear(in_features=40, out_features=40, bias=True)
          (proj_drop): Dropout(p=0.0, inplace=False)
        )
        (ls1): Identity()
        (drop_path1): Identity()
        (norm2): LayerNorm((40,), eps=1e-05, elementwise_affine=True)
        (mlp): Mlp(
          (fc1): Linear(in_features=40, out_features=80, bias=True)
          (act): GELU()
          (drop1): Dropout(p=0.0, inplace=False)
          (fc2): Linear(in_features=80, out_features=40, bias=True)
          (drop2): Dropout(p=0.0, inplace=False)
        )
        (ls2): Identity()
        (drop_path2): Identity()
      )
      (8): Block(
        (norm1): LayerNorm((40,), eps=1e-05, elementwise_affine=True)
        (attn): Attention(
          (qkv): Linear(in_features=40, out_features=120, bias=True)
          (attn_drop): Dropout(p=0.0, inplace=False)
          (proj): Linear(in_features=40, out_features=40, bias=True)
          (proj_drop): Dropout(p=0.0, inplace=False)
        )
        (ls1): Identity()
        (drop_path1): Identity()
        (norm2): LayerNorm((40,), eps=1e-05, elementwise_affine=True)
        (mlp): Mlp(
          (fc1): Linear(in_features=40, out_features=80, bias=True)
          (act): GELU()
          (drop1): Dropout(p=0.0, inplace=False)
          (fc2): Linear(in_features=80, out_features=40, bias=True)
          (drop2): Dropout(p=0.0, inplace=False)
        )
        (ls2): Identity()
        (drop_path2): Identity()
      )
      (9): Block(
        (norm1): LayerNorm((40,), eps=1e-05, elementwise_affine=True)
        (attn): Attention(
          (qkv): Linear(in_features=40, out_features=120, bias=True)
          (attn_drop): Dropout(p=0.0, inplace=False)
          (proj): Linear(in_features=40, out_features=40, bias=True)
          (proj_drop): Dropout(p=0.0, inplace=False)
        )
        (ls1): Identity()
        (drop_path1): Identity()
        (norm2): LayerNorm((40,), eps=1e-05, elementwise_affine=True)
        (mlp): Mlp(
          (fc1): Linear(in_features=40, out_features=80, bias=True)
          (act): GELU()
          (drop1): Dropout(p=0.0, inplace=False)
          (fc2): Linear(in_features=80, out_features=40, bias=True)
          (drop2): Dropout(p=0.0, inplace=False)
        )
        (ls2): Identity()
        (drop_path2): Identity()
      )
      (10): Block(
        (norm1): LayerNorm((40,), eps=1e-05, elementwise_affine=True)
        (attn): Attention(
          (qkv): Linear(in_features=40, out_features=120, bias=True)
          (attn_drop): Dropout(p=0.0, inplace=False)
          (proj): Linear(in_features=40, out_features=40, bias=True)
          (proj_drop): Dropout(p=0.0, inplace=False)
        )
        (ls1): Identity()
        (drop_path1): Identity()
        (norm2): LayerNorm((40,), eps=1e-05, elementwise_affine=True)
        (mlp): Mlp(
          (fc1): Linear(in_features=40, out_features=80, bias=True)
          (act): GELU()
          (drop1): Dropout(p=0.0, inplace=False)
          (fc2): Linear(in_features=80, out_features=40, bias=True)
          (drop2): Dropout(p=0.0, inplace=False)
        )
        (ls2): Identity()
        (drop_path2): Identity()
      )
      (11): Block(
        (norm1): LayerNorm((40,), eps=1e-05, elementwise_affine=True)
        (attn): Attention(
          (qkv): Linear(in_features=40, out_features=120, bias=True)
          (attn_drop): Dropout(p=0.0, inplace=False)
          (proj): Linear(in_features=40, out_features=40, bias=True)
          (proj_drop): Dropout(p=0.0, inplace=False)
        )
        (ls1): Identity()
        (drop_path1): Identity()
        (norm2): LayerNorm((40,), eps=1e-05, elementwise_affine=True)
        (mlp): Mlp(
          (fc1): Linear(in_features=40, out_features=80, bias=True)
          (act): GELU()
          (drop1): Dropout(p=0.0, inplace=False)
          (fc2): Linear(in_features=80, out_features=40, bias=True)
          (drop2): Dropout(p=0.0, inplace=False)
        )
        (ls2): Identity()
        (drop_path2): Identity()
      )
    )
    (norm): LayerNorm((40,), eps=1e-05, elementwise_affine=True)
  )
  (upsample_1_1): ConvTranspose1d(40, 20, kernel_size=(9,), stride=(3,), padding=(3,))
  (upsample_2_1): ConvTranspose1d(20, 10, kernel_size=(8,), stride=(2,), padding=(3,))
  (upsample_3_1): ConvTranspose1d(10, 6, kernel_size=(7,), stride=(1,), padding=(3,))
  (upsample_4_1): ConvTranspose1d(6, 4, kernel_size=(8,), stride=(2,), padding=(3,))
  (upsample_1_2): ConvTranspose1d(40, 20, kernel_size=(9,), stride=(3,), padding=(3,))
  (upsample_2_2): ConvTranspose1d(20, 10, kernel_size=(8,), stride=(2,), padding=(3,))
  (upsample_3_2): ConvTranspose1d(10, 6, kernel_size=(7,), stride=(1,), padding=(3,))
  (upsample_4_2): ConvTranspose1d(6, 4, kernel_size=(8,), stride=(2,), padding=(3,))
  (conv_out): CBR_1D(
    (seq): Sequential(
      (0): Conv1d(4, 4, kernel_size=(9,), stride=(1,), padding=(4,), bias=False)
      (1): BatchNorm1d(4, eps=1e-05, momentum=0.1, affine=True, track_running_stats=True)
      (2): ReLU()
    )
  )
  (conv_cat1): CBR_1D(
    (seq): Sequential(
      (0): Conv1d(40, 20, kernel_size=(9,), stride=(1,), padding=(4,), bias=False)
      (1): BatchNorm1d(20, eps=1e-05, momentum=0.1, affine=True, track_running_stats=True)
      (2): ReLU()
    )
  )
  (conv_cat2): CBR_1D(
    (seq): Sequential(
      (0): Conv1d(20, 10, kernel_size=(9,), stride=(1,), padding=(4,), bias=False)
      (1): BatchNorm1d(10, eps=1e-05, momentum=0.1, affine=True, track_running_stats=True)
      (2): ReLU()
    )
  )
  (conv_cat3): CBR_1D(
    (seq): Sequential(
      (0): Conv1d(12, 6, kernel_size=(9,), stride=(1,), padding=(4,), bias=False)
      (1): BatchNorm1d(6, eps=1e-05, momentum=0.1, affine=True, track_running_stats=True)
      (2): ReLU()
    )
  )
  (conv_cat4): CBR_1D(
    (seq): Sequential(
      (0): Conv1d(8, 4, kernel_size=(9,), stride=(1,), padding=(4,), bias=False)
      (1): BatchNorm1d(4, eps=1e-05, momentum=0.1, affine=True, track_running_stats=True)
      (2): ReLU()
    )
  )
)
train_datasize 800 val_datasize 200
  0%|          | 0/300 [00:00<?, ?it/s]  0%|          | 1/300 [01:44<8:40:38, 104.48s/it]#epoch:01 stage:1 train_loss:1.178e-02 val_loss:1.209e-02  time:1m44s

 bg_pi:0.159 bg_ri:0.995 p_pi:0.881 p_ri:0.522 r_pi:0.715 r_ri:0.006 t_pi:0.924 t_ri:0.002
  1%|          | 2/300 [03:31<8:46:04, 105.92s/it]#epoch:02 stage:1 train_loss:1.064e-02 val_loss:1.131e-02  time:1m47s
…
