  0%|          | 0/1000 [00:00<?, ?it/s]cuda is True
device is cuda
Unet_1D(
  (enc1_1): CBR_1D(
    (seq): Sequential(
      (0): Conv1d(1, 6, kernel_size=(9,), stride=(1,), padding=(4,), bias=False)
      (1): BatchNorm1d(6, eps=1e-05, momentum=0.1, affine=True, track_running_stats=True)
      (2): ReLU()
    )
  )
  (enc1_2): CBR_1D(
    (seq): Sequential(
      (0): Conv1d(6, 6, kernel_size=(9,), stride=(1,), padding=(4,), bias=False)
      (1): BatchNorm1d(6, eps=1e-05, momentum=0.1, affine=True, track_running_stats=True)
      (2): ReLU()
    )
  )
  (enc1_3): CBR_1D(
    (seq): Sequential(
      (0): Conv1d(6, 6, kernel_size=(9,), stride=(1,), padding=(4,), bias=False)
      (1): BatchNorm1d(6, eps=1e-05, momentum=0.1, affine=True, track_running_stats=True)
      (2): ReLU()
    )
  )
  (enc2_1): CBR_1D(
    (seq): Sequential(
      (0): Conv1d(6, 12, kernel_size=(9,), stride=(1,), padding=(4,), bias=False)
      (1): BatchNorm1d(12, eps=1e-05, momentum=0.1, affine=True, track_running_stats=True)
      (2): ReLU()
    )
  )
  (enc2_2): CBR_1D(
    (seq): Sequential(
      (0): Conv1d(12, 12, kernel_size=(9,), stride=(1,), padding=(4,), bias=False)
      (1): BatchNorm1d(12, eps=1e-05, momentum=0.1, affine=True, track_running_stats=True)
      (2): ReLU()
    )
  )
  (enc3_1): CBR_1D(
    (seq): Sequential(
      (0): Conv1d(12, 24, kernel_size=(9,), stride=(1,), padding=(4,), bias=False)
      (1): BatchNorm1d(24, eps=1e-05, momentum=0.1, affine=True, track_running_stats=True)
      (2): ReLU()
    )
  )
  (enc3_2): CBR_1D(
    (seq): Sequential(
      (0): Conv1d(24, 24, kernel_size=(9,), stride=(1,), padding=(4,), bias=False)
      (1): BatchNorm1d(24, eps=1e-05, momentum=0.1, affine=True, track_running_stats=True)
      (2): ReLU()
    )
  )
  (enc4_1): CBR_1D(
    (seq): Sequential(
      (0): Conv1d(24, 48, kernel_size=(9,), stride=(1,), padding=(4,), bias=False)
      (1): BatchNorm1d(48, eps=1e-05, momentum=0.1, affine=True, track_running_stats=True)
      (2): ReLU()
    )
  )
  (enc4_2): CBR_1D(
    (seq): Sequential(
      (0): Conv1d(48, 48, kernel_size=(9,), stride=(1,), padding=(4,), bias=False)
      (1): BatchNorm1d(48, eps=1e-05, momentum=0.1, affine=True, track_running_stats=True)
      (2): ReLU()
    )
  )
  (upsample_3): ConvTranspose1d(48, 48, kernel_size=(8,), stride=(2,), padding=(3,))
  (dec3_1): CBR_1D(
    (seq): Sequential(
      (0): Conv1d(72, 24, kernel_size=(9,), stride=(1,), padding=(4,), bias=False)
      (1): BatchNorm1d(24, eps=1e-05, momentum=0.1, affine=True, track_running_stats=True)
      (2): ReLU()
    )
  )
  (dec3_2): CBR_1D(
    (seq): Sequential(
      (0): Conv1d(24, 24, kernel_size=(9,), stride=(1,), padding=(4,), bias=False)
      (1): BatchNorm1d(24, eps=1e-05, momentum=0.1, affine=True, track_running_stats=True)
      (2): ReLU()
    )
  )
  (upsample_2): ConvTranspose1d(24, 24, kernel_size=(8,), stride=(2,), padding=(3,))
  (dec2_1): CBR_1D(
    (seq): Sequential(
      (0): Conv1d(36, 12, kernel_size=(9,), stride=(1,), padding=(4,), bias=False)
      (1): BatchNorm1d(12, eps=1e-05, momentum=0.1, affine=True, track_running_stats=True)
      (2): ReLU()
    )
  )
  (dec2_2): CBR_1D(
    (seq): Sequential(
      (0): Conv1d(12, 12, kernel_size=(9,), stride=(1,), padding=(4,), bias=False)
      (1): BatchNorm1d(12, eps=1e-05, momentum=0.1, affine=True, track_running_stats=True)
      (2): ReLU()
    )
  )
  (upsample_1): ConvTranspose1d(12, 12, kernel_size=(8,), stride=(2,), padding=(3,))
  (dec1_1): CBR_1D(
    (seq): Sequential(
      (0): Conv1d(18, 6, kernel_size=(9,), stride=(1,), padding=(4,), bias=False)
      (1): BatchNorm1d(6, eps=1e-05, momentum=0.1, affine=True, track_running_stats=True)
      (2): ReLU()
    )
  )
  (dec1_2): CBR_1D(
    (seq): Sequential(
      (0): Conv1d(6, 6, kernel_size=(9,), stride=(1,), padding=(4,), bias=False)
      (1): BatchNorm1d(6, eps=1e-05, momentum=0.1, affine=True, track_running_stats=True)
      (2): ReLU()
    )
  )
  (dec1_3): CBR_1D(
    (seq): Sequential(
      (0): Conv1d(6, 4, kernel_size=(9,), stride=(1,), padding=(4,), bias=False)
      (1): BatchNorm1d(4, eps=1e-05, momentum=0.1, affine=True, track_running_stats=True)
      (2): ReLU()
    )
  )
  (dec1_4): CBR_1D(
    (seq): Sequential(
      (0): Conv1d(4, 4, kernel_size=(9,), stride=(1,), padding=(4,), bias=False)
      (1): BatchNorm1d(4, eps=1e-05, momentum=0.1, affine=True, track_running_stats=True)
      (2): ReLU()
    )
  )
)
train_datasize 702 val_datasize 159
train.py:189: RuntimeWarning: invalid value encountered in long_scalars
  pi = np.sum(p_dict[i]) / np.sum(p_sum_dict[i])
  0%|          | 1/1000 [00:41<11:31:47, 41.55s/it]#epoch:01 stage:1 train_loss:1.094e-02 val_loss:1.031e-02  time:0m42s

 bg_pi:nan bg_ri:0.000 p_pi:nan p_ri:0.000 r_pi:0.178 r_ri:1.000 t_pi:nan t_ri:0.000
…
