MAE_linearmask(
  (encoder): ViT1D(
    (to_patch_embedding): Sequential(
      (0): Rearrange('b (sl pl) -> b sl pl', pl=10)
      (1): Linear(in_features=10, out_features=8, bias=True)
    )
    (dropout): Dropout(p=0.0, inplace=False)
    (transformer): Transformer(
      (layers): ModuleList(
        (0): ModuleList(
          (0): PreNorm(
            (norm): LayerNorm((8,), eps=1e-05, elementwise_affine=True)
            (fn): Attention(
              (attend): Softmax(dim=-1)
              (to_qkv): Linear(in_features=8, out_features=96, bias=False)
              (to_out): Sequential(
                (0): Linear(in_features=32, out_features=8, bias=True)
                (1): Dropout(p=0.0, inplace=False)
              )
            )
          )
          (1): PreNorm(
            (norm): LayerNorm((8,), eps=1e-05, elementwise_affine=True)
            (fn): FeedForward(
              (net): Sequential(
                (0): Linear(in_features=8, out_features=8, bias=True)
                (1): GELU()
                (2): Dropout(p=0.0, inplace=False)
                (3): Linear(in_features=8, out_features=8, bias=True)
                (4): Dropout(p=0.0, inplace=False)
              )
            )
          )
        )
        (1): ModuleList(
          (0): PreNorm(
            (norm): LayerNorm((8,), eps=1e-05, elementwise_affine=True)
            (fn): Attention(
              (attend): Softmax(dim=-1)
              (to_qkv): Linear(in_features=8, out_features=96, bias=False)
              (to_out): Sequential(
                (0): Linear(in_features=32, out_features=8, bias=True)
                (1): Dropout(p=0.0, inplace=False)
              )
            )
          )
          (1): PreNorm(
            (norm): LayerNorm((8,), eps=1e-05, elementwise_affine=True)
            (fn): FeedForward(
              (net): Sequential(
                (0): Linear(in_features=8, out_features=8, bias=True)
                (1): GELU()
                (2): Dropout(p=0.0, inplace=False)
                (3): Linear(in_features=8, out_features=8, bias=True)
                (4): Dropout(p=0.0, inplace=False)
              )
            )
          )
        )
        (2): ModuleList(
          (0): PreNorm(
            (norm): LayerNorm((8,), eps=1e-05, elementwise_affine=True)
            (fn): Attention(
              (attend): Softmax(dim=-1)
              (to_qkv): Linear(in_features=8, out_features=96, bias=False)
              (to_out): Sequential(
                (0): Linear(in_features=32, out_features=8, bias=True)
                (1): Dropout(p=0.0, inplace=False)
              )
            )
          )
          (1): PreNorm(
            (norm): LayerNorm((8,), eps=1e-05, elementwise_affine=True)
            (fn): FeedForward(
              (net): Sequential(
                (0): Linear(in_features=8, out_features=8, bias=True)
                (1): GELU()
                (2): Dropout(p=0.0, inplace=False)
                (3): Linear(in_features=8, out_features=8, bias=True)
                (4): Dropout(p=0.0, inplace=False)
              )
            )
          )
        )
        (3): ModuleList(
          (0): PreNorm(
            (norm): LayerNorm((8,), eps=1e-05, elementwise_affine=True)
            (fn): Attention(
              (attend): Softmax(dim=-1)
              (to_qkv): Linear(in_features=8, out_features=96, bias=False)
              (to_out): Sequential(
                (0): Linear(in_features=32, out_features=8, bias=True)
                (1): Dropout(p=0.0, inplace=False)
              )
            )
          )
          (1): PreNorm(
            (norm): LayerNorm((8,), eps=1e-05, elementwise_affine=True)
            (fn): FeedForward(
              (net): Sequential(
                (0): Linear(in_features=8, out_features=8, bias=True)
                (1): GELU()
                (2): Dropout(p=0.0, inplace=False)
                (3): Linear(in_features=8, out_features=8, bias=True)
                (4): Dropout(p=0.0, inplace=False)
              )
            )
          )
        )
      )
    )
    (to_latent): Identity()
    (mlp_head): Sequential(
      (0): LayerNorm((8,), eps=1e-05, elementwise_affine=True)
      (1): Linear(in_features=8, out_features=1000, bias=True)
    )
  )
  (to_patch): Rearrange('b (sl pl) -> b sl pl', pl=10)
  (patch_to_emb): Linear(in_features=10, out_features=8, bias=True)
  (to_linear_mask): Linear_mask()
  (enc_to_dec): Linear(in_features=8, out_features=5, bias=True)
  (decoder): Transformer(
    (layers): ModuleList(
      (0): ModuleList(
        (0): PreNorm(
          (norm): LayerNorm((5,), eps=1e-05, elementwise_affine=True)
          (fn): Attention(
            (attend): Softmax(dim=-1)
            (to_qkv): Linear(in_features=5, out_features=192, bias=False)
            (to_out): Sequential(
              (0): Linear(in_features=64, out_features=5, bias=True)
              (1): Dropout(p=0.0, inplace=False)
            )
          )
        )
        (1): PreNorm(
          (norm): LayerNorm((5,), eps=1e-05, elementwise_affine=True)
          (fn): FeedForward(
            (net): Sequential(
              (0): Linear(in_features=5, out_features=20, bias=True)
              (1): GELU()
              (2): Dropout(p=0.0, inplace=False)
              (3): Linear(in_features=20, out_features=5, bias=True)
              (4): Dropout(p=0.0, inplace=False)
            )
          )
        )
      )
      (1): ModuleList(
        (0): PreNorm(
          (norm): LayerNorm((5,), eps=1e-05, elementwise_affine=True)
          (fn): Attention(
            (attend): Softmax(dim=-1)
            (to_qkv): Linear(in_features=5, out_features=192, bias=False)
            (to_out): Sequential(
              (0): Linear(in_features=64, out_features=5, bias=True)
              (1): Dropout(p=0.0, inplace=False)
            )
          )
        )
        (1): PreNorm(
          (norm): LayerNorm((5,), eps=1e-05, elementwise_affine=True)
          (fn): FeedForward(
            (net): Sequential(
              (0): Linear(in_features=5, out_features=20, bias=True)
              (1): GELU()
              (2): Dropout(p=0.0, inplace=False)
              (3): Linear(in_features=20, out_features=5, bias=True)
              (4): Dropout(p=0.0, inplace=False)
            )
          )
        )
      )
      (2): ModuleList(
        (0): PreNorm(
          (norm): LayerNorm((5,), eps=1e-05, elementwise_affine=True)
          (fn): Attention(
            (attend): Softmax(dim=-1)
            (to_qkv): Linear(in_features=5, out_features=192, bias=False)
            (to_out): Sequential(
              (0): Linear(in_features=64, out_features=5, bias=True)
              (1): Dropout(p=0.0, inplace=False)
            )
          )
        )
        (1): PreNorm(
          (norm): LayerNorm((5,), eps=1e-05, elementwise_affine=True)
          (fn): FeedForward(
            (net): Sequential(
              (0): Linear(in_features=5, out_features=20, bias=True)
              (1): GELU()
              (2): Dropout(p=0.0, inplace=False)
              (3): Linear(in_features=20, out_features=5, bias=True)
              (4): Dropout(p=0.0, inplace=False)
            )
          )
        )
      )
      (3): ModuleList(
        (0): PreNorm(
          (norm): LayerNorm((5,), eps=1e-05, elementwise_affine=True)
          (fn): Attention(
            (attend): Softmax(dim=-1)
            (to_qkv): Linear(in_features=5, out_features=192, bias=False)
            (to_out): Sequential(
              (0): Linear(in_features=64, out_features=5, bias=True)
              (1): Dropout(p=0.0, inplace=False)
            )
          )
        )
        (1): PreNorm(
          (norm): LayerNorm((5,), eps=1e-05, elementwise_affine=True)
          (fn): FeedForward(
            (net): Sequential(
              (0): Linear(in_features=5, out_features=20, bias=True)
              (1): GELU()
              (2): Dropout(p=0.0, inplace=False)
              (3): Linear(in_features=20, out_features=5, bias=True)
              (4): Dropout(p=0.0, inplace=False)
            )
          )
        )
      )
    )
  )
  (decoder_pos_emb): Embedding(251, 5)
  (to_pixels): Linear(in_features=5, out_features=10, bias=True)
  (loss_funtion): MSELoss()
)/root/miniconda3/envs/ECG/lib/python3.7/site-packages/torch/nn/_reduction.py:44: UserWarning: size_average and reduce args will be deprecated, please use reduction='sum' instead.
  warnings.warn(warning.format(ret))
/root/miniconda3/envs/ECG/lib/python3.7/site-packages/torch/nn/_reduction.py:44: UserWarning: size_average and reduce args will be deprecated, please use reduction='none' instead.
…
