start train
MultiResUnet(
  (mres_block1): MultiResBlock(
    (conv1d_bn): Sequential(
      (0): Conv1d(1, 25, kernel_size=(1,), stride=(1,), bias=False)
      (1): BatchNorm1d(25, eps=1e-05, momentum=0.1, affine=True, track_running_stats=True)
    )
    (conv3x3): Sequential(
      (0): Conv1d(1, 4, kernel_size=(9,), stride=(1,), padding=(4,), bias=False)
      (1): BatchNorm1d(4, eps=1e-05, momentum=0.1, affine=False, track_running_stats=True)
      (2): ReLU()
    )
    (conv5x5): Sequential(
      (0): Conv1d(4, 8, kernel_size=(9,), stride=(1,), padding=(4,), bias=False)
      (1): BatchNorm1d(8, eps=1e-05, momentum=0.1, affine=False, track_running_stats=True)
      (2): ReLU()
    )
    (conv7x7): Sequential(
      (0): Conv1d(8, 13, kernel_size=(9,), stride=(1,), padding=(4,), bias=False)
      (1): BatchNorm1d(13, eps=1e-05, momentum=0.1, affine=False, track_running_stats=True)
      (2): ReLU()
    )
    (bn_1): BatchNorm1d(25, eps=1e-05, momentum=0.1, affine=True, track_running_stats=True)
    (relu): ReLU()
    (bn_2): BatchNorm1d(25, eps=1e-05, momentum=0.1, affine=True, track_running_stats=True)
  )
  (pool): MaxPool1d(kernel_size=2, stride=2, padding=0, dilation=1, ceil_mode=False)
  (res_path1): ResPath(
    (first_block): ResPathBlock(
      (conv1d_bn1): Sequential(
        (0): Conv1d(25, 16, kernel_size=(1,), stride=(1,), bias=False)
        (1): BatchNorm1d(16, eps=1e-05, momentum=0.1, affine=True, track_running_stats=True)
      )
      (conv1d_bn2): Sequential(
        (0): Conv1d(25, 16, kernel_size=(9,), stride=(1,), padding=(4,), bias=False)
        (1): BatchNorm1d(16, eps=1e-05, momentum=0.1, affine=False, track_running_stats=True)
        (2): ReLU()
      )
      (relu): ReLU()
      (bn): BatchNorm1d(16, eps=1e-05, momentum=0.1, affine=True, track_running_stats=True)
    )
    (blocks): Sequential(
      (0): ResPathBlock(
        (conv1d_bn1): Sequential(
          (0): Conv1d(16, 16, kernel_size=(1,), stride=(1,), bias=False)
          (1): BatchNorm1d(16, eps=1e-05, momentum=0.1, affine=True, track_running_stats=True)
        )
        (conv1d_bn2): Sequential(
          (0): Conv1d(16, 16, kernel_size=(9,), stride=(1,), padding=(4,), bias=False)
          (1): BatchNorm1d(16, eps=1e-05, momentum=0.1, affine=False, track_running_stats=True)
          (2): ReLU()
        )
        (relu): ReLU()
        (bn): BatchNorm1d(16, eps=1e-05, momentum=0.1, affine=True, track_running_stats=True)
      )
      (1): ResPathBlock(
        (conv1d_bn1): Sequential(
          (0): Conv1d(16, 16, kernel_size=(1,), stride=(1,), bias=False)
          (1): BatchNorm1d(16, eps=1e-05, momentum=0.1, affine=True, track_running_stats=True)
        )
        (conv1d_bn2): Sequential(
          (0): Conv1d(16, 16, kernel_size=(9,), stride=(1,), padding=(4,), bias=False)
          (1): BatchNorm1d(16, eps=1e-05, momentum=0.1, affine=False, track_running_stats=True)
          (2): ReLU()
        )
        (relu): ReLU()
        (bn): BatchNorm1d(16, eps=1e-05, momentum=0.1, affine=True, track_running_stats=True)
      )
      (2): ResPathBlock(
        (conv1d_bn1): Sequential(
          (0): Conv1d(16, 16, kernel_size=(1,), stride=(1,), bias=False)
          (1): BatchNorm1d(16, eps=1e-05, momentum=0.1, affine=True, track_running_stats=True)
        )
        (conv1d_bn2): Sequential(
          (0): Conv1d(16, 16, kernel_size=(9,), stride=(1,), padding=(4,), bias=False)
          (1): BatchNorm1d(16, eps=1e-05, momentum=0.1, affine=False, track_running_stats=True)
          (2): ReLU()
        )
        (relu): ReLU()
        (bn): BatchNorm1d(16, eps=1e-05, momentum=0.1, affine=True, track_running_stats=True)
      )
    )
  )
  (mres_block2): MultiResBlock(
    (conv1d_bn): Sequential(
      (0): Conv1d(25, 51, kernel_size=(1,), stride=(1,), bias=False)
      (1): BatchNorm1d(51, eps=1e-05, momentum=0.1, affine=True, track_running_stats=True)
    )
    (conv3x3): Sequential(
      (0): Conv1d(25, 8, kernel_size=(9,), stride=(1,), padding=(4,), bias=False)
      (1): BatchNorm1d(8, eps=1e-05, momentum=0.1, affine=False, track_running_stats=True)
      (2): ReLU()
    )
    (conv5x5): Sequential(
      (0): Conv1d(8, 17, kernel_size=(9,), stride=(1,), padding=(4,), bias=False)
      (1): BatchNorm1d(17, eps=1e-05, momentum=0.1, affine=False, track_running_stats=True)
      (2): ReLU()
    )
    (conv7x7): Sequential(
      (0): Conv1d(17, 26, kernel_size=(9,), stride=(1,), padding=(4,), bias=False)
      (1): BatchNorm1d(26, eps=1e-05, momentum=0.1, affine=False, track_running_stats=True)
      (2): ReLU()
    )
    (bn_1): BatchNorm1d(51, eps=1e-05, momentum=0.1, affine=True, track_running_stats=True)
    (relu): ReLU()
    (bn_2): BatchNorm1d(51, eps=1e-05, momentum=0.1, affine=True, track_running_stats=True)
  )
  (res_path2): ResPath(
    (first_block): ResPathBlock(
      (conv1d_bn1): Sequential(
        (0): Conv1d(51, 32, kernel_size=(1,), stride=(1,), bias=False)
        (1): BatchNorm1d(32, eps=1e-05, momentum=0.1, affine=True, track_running_stats=True)
      )
      (conv1d_bn2): Sequential(
        (0): Conv1d(51, 32, kernel_size=(9,), stride=(1,), padding=(4,), bias=False)
        (1): BatchNorm1d(32, eps=1e-05, momentum=0.1, affine=False, track_running_stats=True)
        (2): ReLU()
      )
      (relu): ReLU()
      (bn): BatchNorm1d(32, eps=1e-05, momentum=0.1, affine=True, track_running_stats=True)
    )
    (blocks): Sequential(
      (0): ResPathBlock(
        (conv1d_bn1): Sequential(
          (0): Conv1d(32, 32, kernel_size=(1,), stride=(1,), bias=False)
          (1): BatchNorm1d(32, eps=1e-05, momentum=0.1, affine=True, track_running_stats=True)
        )
        (conv1d_bn2): Sequential(
          (0): Conv1d(32, 32, kernel_size=(9,), stride=(1,), padding=(4,), bias=False)
          (1): BatchNorm1d(32, eps=1e-05, momentum=0.1, affine=False, track_running_stats=True)
          (2): ReLU()
        )
        (relu): ReLU()
        (bn): BatchNorm1d(32, eps=1e-05, momentum=0.1, affine=True, track_running_stats=True)
      )
      (1): ResPathBlock(
        (conv1d_bn1): Sequential(
          (0): Conv1d(32, 32, kernel_size=(1,), stride=(1,), bias=False)
          (1): BatchNorm1d(32, eps=1e-05, momentum=0.1, affine=True, track_running_stats=True)
        )
        (conv1d_bn2): Sequential(
          (0): Conv1d(32, 32, kernel_size=(9,), stride=(1,), padding=(4,), bias=False)
          (1): BatchNorm1d(32, eps=1e-05, momentum=0.1, affine=False, track_running_stats=True)
          (2): ReLU()
        )
        (relu): ReLU()
        (bn): BatchNorm1d(32, eps=1e-05, momentum=0.1, affine=True, track_running_stats=True)
      )
    )
  )
  (mres_block3): MultiResBlock(
    (conv1d_bn): Sequential(
      (0): Conv1d(51, 105, kernel_size=(1,), stride=(1,), bias=False)
      (1): BatchNorm1d(105, eps=1e-05, momentum=0.1, affine=True, track_running_stats=True)
    )
    (conv3x3): Sequential(
      (0): Conv1d(51, 17, kernel_size=(9,), stride=(1,), padding=(4,), bias=False)
      (1): BatchNorm1d(17, eps=1e-05, momentum=0.1, affine=False, track_running_stats=True)
      (2): ReLU()
    )
    (conv5x5): Sequential(
      (0): Conv1d(17, 35, kernel_size=(9,), stride=(1,), padding=(4,), bias=False)
      (1): BatchNorm1d(35, eps=1e-05, momentum=0.1, affine=False, track_running_stats=True)
      (2): ReLU()
    )
    (conv7x7): Sequential(
      (0): Conv1d(35, 53, kernel_size=(9,), stride=(1,), padding=(4,), bias=False)
      (1): BatchNorm1d(53, eps=1e-05, momentum=0.1, affine=False, track_running_stats=True)
      (2): ReLU()
    )
    (bn_1): BatchNorm1d(105, eps=1e-05, momentum=0.1, affine=True, track_running_stats=True)
    (relu): ReLU()
    (bn_2): BatchNorm1d(105, eps=1e-05, momentum=0.1, affine=True, track_running_stats=True)
  )
  (res_path3): ResPath(
    (first_block): ResPathBlock(
      (conv1d_bn1): Sequential(
        (0): Conv1d(105, 64, kernel_size=(1,), stride=(1,), bias=False)
        (1): BatchNorm1d(64, eps=1e-05, momentum=0.1, affine=True, track_running_stats=True)
      )
      (conv1d_bn2): Sequential(
        (0): Conv1d(105, 64, kernel_size=(9,), stride=(1,), padding=(4,), bias=False)
        (1): BatchNorm1d(64, eps=1e-05, momentum=0.1, affine=False, track_running_stats=True)
        (2): ReLU()
      )
      (relu): ReLU()
      (bn): BatchNorm1d(64, eps=1e-05, momentum=0.1, affine=True, track_running_stats=True)
    )
    (blocks): Sequential(
      (0): ResPathBlock(
        (conv1d_bn1): Sequential(
          (0): Conv1d(64, 64, kernel_size=(1,), stride=(1,), bias=False)
          (1): BatchNorm1d(64, eps=1e-05, momentum=0.1, affine=True, track_running_stats=True)
        )
        (conv1d_bn2): Sequential(
          (0): Conv1d(64, 64, kernel_size=(9,), stride=(1,), padding=(4,), bias=False)
          (1): BatchNorm1d(64, eps=1e-05, momentum=0.1, affine=False, track_running_stats=True)
          (2): ReLU()
        )
        (relu): ReLU()
        (bn): BatchNorm1d(64, eps=1e-05, momentum=0.1, affine=True, track_running_stats=True)
      )
    )
  )
  (mres_block4): MultiResBlock(
    (conv1d_bn): Sequential(
      (0): Conv1d(105, 212, kernel_size=(1,), stride=(1,), bias=False)
      (1): BatchNorm1d(212, eps=1e-05, momentum=0.1, affine=True, track_running_stats=True)
    )
    (conv3x3): Sequential(
      (0): Conv1d(105, 35, kernel_size=(9,), stride=(1,), padding=(4,), bias=False)
      (1): BatchNorm1d(35, eps=1e-05, momentum=0.1, affine=False, track_running_stats=True)
      (2): ReLU()
    )
    (conv5x5): Sequential(
      (0): Conv1d(35, 71, kernel_size=(9,), stride=(1,), padding=(4,), bias=False)
      (1): BatchNorm1d(71, eps=1e-05, momentum=0.1, affine=False, track_running_stats=True)
      (2): ReLU()
    )
    (conv7x7): Sequential(
      (0): Conv1d(71, 106, kernel_size=(9,), stride=(1,), padding=(4,), bias=False)
      (1): BatchNorm1d(106, eps=1e-05, momentum=0.1, affine=False, track_running_stats=True)
      (2): ReLU()
    )
    (bn_1): BatchNorm1d(212, eps=1e-05, momentum=0.1, affine=True, track_running_stats=True)
    (relu): ReLU()
    (bn_2): BatchNorm1d(212, eps=1e-05, momentum=0.1, affine=True, track_running_stats=True)
  )
  (res_path4): ResPath(
    (first_block): ResPathBlock(
      (conv1d_bn1): Sequential(
        (0): Conv1d(212, 128, kernel_size=(1,), stride=(1,), bias=False)
        (1): BatchNorm1d(128, eps=1e-05, momentum=0.1, affine=True, track_running_stats=True)
      )
      (conv1d_bn2): Sequential(
        (0): Conv1d(212, 128, kernel_size=(9,), stride=(1,), padding=(4,), bias=False)
        (1): BatchNorm1d(128, eps=1e-05, momentum=0.1, affine=False, track_running_stats=True)
        (2): ReLU()
      )
      (relu): ReLU()
      (bn): BatchNorm1d(128, eps=1e-05, momentum=0.1, affine=True, track_running_stats=True)
    )
    (blocks): Sequential()
  )
  (mres_block5): MultiResBlock(
    (conv1d_bn): Sequential(
      (0): Conv1d(212, 426, kernel_size=(1,), stride=(1,), bias=False)
      (1): BatchNorm1d(426, eps=1e-05, momentum=0.1, affine=True, track_running_stats=True)
    )
    (conv3x3): Sequential(
      (0): Conv1d(212, 71, kernel_size=(9,), stride=(1,), padding=(4,), bias=False)
      (1): BatchNorm1d(71, eps=1e-05, momentum=0.1, affine=False, track_running_stats=True)
      (2): ReLU()
    )
    (conv5x5): Sequential(
      (0): Conv1d(71, 142, kernel_size=(9,), stride=(1,), padding=(4,), bias=False)
      (1): BatchNorm1d(142, eps=1e-05, momentum=0.1, affine=False, track_running_stats=True)
      (2): ReLU()
    )
    (conv7x7): Sequential(
      (0): Conv1d(142, 213, kernel_size=(9,), stride=(1,), padding=(4,), bias=False)
      (1): BatchNorm1d(213, eps=1e-05, momentum=0.1, affine=False, track_running_stats=True)
      (2): ReLU()
    )
    (bn_1): BatchNorm1d(426, eps=1e-05, momentum=0.1, affine=True, track_running_stats=True)
    (relu): ReLU()
    (bn_2): BatchNorm1d(426, eps=1e-05, momentum=0.1, affine=True, track_running_stats=True)
  )
  (deconv1): ConvTranspose1d(426, 128, kernel_size=(8,), stride=(2,), padding=(3,))
  (mres_block6): MultiResBlock(
    (conv1d_bn): Sequential(
      (0): Conv1d(256, 212, kernel_size=(1,), stride=(1,), bias=False)
      (1): BatchNorm1d(212, eps=1e-05, momentum=0.1, affine=True, track_running_stats=True)
    )
    (conv3x3): Sequential(
      (0): Conv1d(256, 35, kernel_size=(9,), stride=(1,), padding=(4,), bias=False)
      (1): BatchNorm1d(35, eps=1e-05, momentum=0.1, affine=False, track_running_stats=True)
      (2): ReLU()
    )
    (conv5x5): Sequential(
      (0): Conv1d(35, 71, kernel_size=(9,), stride=(1,), padding=(4,), bias=False)
      (1): BatchNorm1d(71, eps=1e-05, momentum=0.1, affine=False, track_running_stats=True)
      (2): ReLU()
    )
    (conv7x7): Sequential(
      (0): Conv1d(71, 106, kernel_size=(9,), stride=(1,), padding=(4,), bias=False)
      (1): BatchNorm1d(106, eps=1e-05, momentum=0.1, affine=False, track_running_stats=True)
      (2): ReLU()
    )
    (bn_1): BatchNorm1d(212, eps=1e-05, momentum=0.1, affine=True, track_running_stats=True)
    (relu): ReLU()
    (bn_2): BatchNorm1d(212, eps=1e-05, momentum=0.1, affine=True, track_running_stats=True)
  )
  (deconv2): ConvTranspose1d(212, 64, kernel_size=(8,), stride=(2,), padding=(3,))
  (mres_block7): MultiResBlock(
    (conv1d_bn): Sequential(
      (0): Conv1d(128, 105, kernel_size=(1,), stride=(1,), bias=False)
      (1): BatchNorm1d(105, eps=1e-05, momentum=0.1, affine=True, track_running_stats=True)
    )
    (conv3x3): Sequential(
      (0): Conv1d(128, 17, kernel_size=(9,), stride=(1,), padding=(4,), bias=False)
      (1): BatchNorm1d(17, eps=1e-05, momentum=0.1, affine=False, track_running_stats=True)
      (2): ReLU()
    )
    (conv5x5): Sequential(
      (0): Conv1d(17, 35, kernel_size=(9,), stride=(1,), padding=(4,), bias=False)
      (1): BatchNorm1d(35, eps=1e-05, momentum=0.1, affine=False, track_running_stats=True)
      (2): ReLU()
    )
    (conv7x7): Sequential(
      (0): Conv1d(35, 53, kernel_size=(9,), stride=(1,), padding=(4,), bias=False)
      (1): BatchNorm1d(53, eps=1e-05, momentum=0.1, affine=False, track_running_stats=True)
      (2): ReLU()
    )
    (bn_1): BatchNorm1d(105, eps=1e-05, momentum=0.1, affine=True, track_running_stats=True)
    (relu): ReLU()
    (bn_2): BatchNorm1d(105, eps=1e-05, momentum=0.1, affine=True, track_running_stats=True)
  )
  (deconv3): ConvTranspose1d(105, 32, kernel_size=(8,), stride=(2,), padding=(3,))
  (mres_block8): MultiResBlock(
    (conv1d_bn): Sequential(
      (0): Conv1d(64, 51, kernel_size=(1,), stride=(1,), bias=False)
      (1): BatchNorm1d(51, eps=1e-05, momentum=0.1, affine=True, track_running_stats=True)
    )
    (conv3x3): Sequential(
      (0): Conv1d(64, 8, kernel_size=(9,), stride=(1,), padding=(4,), bias=False)
      (1): BatchNorm1d(8, eps=1e-05, momentum=0.1, affine=False, track_running_stats=True)
      (2): ReLU()
    )
    (conv5x5): Sequential(
      (0): Conv1d(8, 17, kernel_size=(9,), stride=(1,), padding=(4,), bias=False)
      (1): BatchNorm1d(17, eps=1e-05, momentum=0.1, affine=False, track_running_stats=True)
      (2): ReLU()
    )
    (conv7x7): Sequential(
      (0): Conv1d(17, 26, kernel_size=(9,), stride=(1,), padding=(4,), bias=False)
      (1): BatchNorm1d(26, eps=1e-05, momentum=0.1, affine=False, track_running_stats=True)
      (2): ReLU()
    )
    (bn_1): BatchNorm1d(51, eps=1e-05, momentum=0.1, affine=True, track_running_stats=True)
    (relu): ReLU()
    (bn_2): BatchNorm1d(51, eps=1e-05, momentum=0.1, affine=True, track_running_stats=True)
  )
  (deconv4): ConvTranspose1d(51, 16, kernel_size=(8,), stride=(2,), padding=(3,))
  (mres_block9): MultiResBlock(
    (conv1d_bn): Sequential(
      (0): Conv1d(32, 25, kernel_size=(1,), stride=(1,), bias=False)
      (1): BatchNorm1d(25, eps=1e-05, momentum=0.1, affine=True, track_running_stats=True)
    )
    (conv3x3): Sequential(
      (0): Conv1d(32, 4, kernel_size=(9,), stride=(1,), padding=(4,), bias=False)
      (1): BatchNorm1d(4, eps=1e-05, momentum=0.1, affine=False, track_running_stats=True)
      (2): ReLU()
    )
    (conv5x5): Sequential(
      (0): Conv1d(4, 8, kernel_size=(9,), stride=(1,), padding=(4,), bias=False)
      (1): BatchNorm1d(8, eps=1e-05, momentum=0.1, affine=False, track_running_stats=True)
      (2): ReLU()
    )
    (conv7x7): Sequential(
      (0): Conv1d(8, 13, kernel_size=(9,), stride=(1,), padding=(4,), bias=False)
      (1): BatchNorm1d(13, eps=1e-05, momentum=0.1, affine=False, track_running_stats=True)
      (2): ReLU()
    )
    (bn_1): BatchNorm1d(25, eps=1e-05, momentum=0.1, affine=True, track_running_stats=True)
    (relu): ReLU()
    (bn_2): BatchNorm1d(25, eps=1e-05, momentum=0.1, affine=True, track_running_stats=True)
  )
  (conv10): Sequential(
    (0): Conv1d(25, 4, kernel_size=(9,), stride=(1,), padding=(4,), bias=False)
    (1): BatchNorm1d(4, eps=1e-05, momentum=0.1, affine=True, track_running_stats=True)
    (2): Tanh()
  )
)  0%|          | 0/200 [00:00<?, ?it/s]
train_datasize 1662 val_datasize 399
  0%|          | 1/200 [02:04<6:52:08, 124.26s/it]#epoch:01 stage:1 train_loss:8.359e-03 val_loss:7.738e-03  time:2m4s

 bg_pi:0.619 bg_ri:0.894 p_pi:0.736 p_ri:0.827 r_pi:0.650 r_ri:0.954 t_pi:0.915 t_ri:0.642
  1%|          | 2/200 [04:09<6:50:57, 124.53s/it]#epoch:02 stage:1 train_loss:7.367e-03 val_loss:7.293e-03  time:2m5s
…
