…
layer3.5.bn2.bias
True
layer4.0.conv1.weight
True
layer4.0.bn1.weight
True
layer4.0.bn1.bias
True
layer4.0.conv2.weight
True
layer4.0.bn2.weight
True
layer4.0.bn2.bias
True
layer4.0.downsample.0.weight
True
layer4.0.downsample.1.weight
True
layer4.0.downsample.1.bias
True
layer4.1.conv1.weight
True
layer4.1.bn1.weight
True
layer4.1.bn1.bias
True
layer4.1.conv2.weight
True
layer4.1.bn2.weight
True
layer4.1.bn2.bias
True
layer4.2.conv1.weight
True
layer4.2.bn1.weight
True
layer4.2.bn1.bias
True
layer4.2.conv2.weight
True
layer4.2.bn2.weight
True
layer4.2.bn2.bias
True
fc.weight
True
fc.bias
True
ResNet(
  (conv1): Conv1d(8, 64, kernel_size=(15,), stride=(2,), padding=(7,), bias=False)
  (bn1): BatchNorm1d(64, eps=1e-05, momentum=0.1, affine=True, track_running_stats=True)
  (relu): ReLU(inplace=True)
  (maxpool): MaxPool1d(kernel_size=3, stride=2, padding=1, dilation=1, ceil_mode=False)
  (layer1): Sequential(
    (0): BasicBlock(
      (conv1): Conv1d(64, 64, kernel_size=(7,), stride=(1,), padding=(3,), bias=False)
      (bn1): BatchNorm1d(64, eps=1e-05, momentum=0.1, affine=True, track_running_stats=True)
      (relu): ReLU(inplace=True)
      (conv2): Conv1d(64, 64, kernel_size=(7,), stride=(1,), padding=(3,), bias=False)
      (bn2): BatchNorm1d(64, eps=1e-05, momentum=0.1, affine=True, track_running_stats=True)
      (dropout): Dropout(p=0.2, inplace=False)
    )
    (1): BasicBlock(
      (conv1): Conv1d(64, 64, kernel_size=(7,), stride=(1,), padding=(3,), bias=False)
      (bn1): BatchNorm1d(64, eps=1e-05, momentum=0.1, affine=True, track_running_stats=True)
      (relu): ReLU(inplace=True)
      (conv2): Conv1d(64, 64, kernel_size=(7,), stride=(1,), padding=(3,), bias=False)
      (bn2): BatchNorm1d(64, eps=1e-05, momentum=0.1, affine=True, track_running_stats=True)
      (dropout): Dropout(p=0.2, inplace=False)
    )
    (2): BasicBlock(
      (conv1): Conv1d(64, 64, kernel_size=(7,), stride=(1,), padding=(3,), bias=False)
      (bn1): BatchNorm1d(64, eps=1e-05, momentum=0.1, affine=True, track_running_stats=True)
      (relu): ReLU(inplace=True)
      (conv2): Conv1d(64, 64, kernel_size=(7,), stride=(1,), padding=(3,), bias=False)
      (bn2): BatchNorm1d(64, eps=1e-05, momentum=0.1, affine=True, track_running_stats=True)
      (dropout): Dropout(p=0.2, inplace=False)
    )
  )
  (layer2): Sequential(
    (0): BasicBlock(
      (conv1): Conv1d(64, 128, kernel_size=(7,), stride=(2,), padding=(3,), bias=False)
      (bn1): BatchNorm1d(128, eps=1e-05, momentum=0.1, affine=True, track_running_stats=True)
      (relu): ReLU(inplace=True)
      (conv2): Conv1d(128, 128, kernel_size=(7,), stride=(1,), padding=(3,), bias=False)
      (bn2): BatchNorm1d(128, eps=1e-05, momentum=0.1, affine=True, track_running_stats=True)
      (downsample): Sequential(
        (0): Conv1d(64, 128, kernel_size=(1,), stride=(2,), bias=False)
        (1): BatchNorm1d(128, eps=1e-05, momentum=0.1, affine=True, track_running_stats=True)
      )
      (dropout): Dropout(p=0.2, inplace=False)
    )
    (1): BasicBlock(
      (conv1): Conv1d(128, 128, kernel_size=(7,), stride=(1,), padding=(3,), bias=False)
      (bn1): BatchNorm1d(128, eps=1e-05, momentum=0.1, affine=True, track_running_stats=True)
      (relu): ReLU(inplace=True)
      (conv2): Conv1d(128, 128, kernel_size=(7,), stride=(1,), padding=(3,), bias=False)
      (bn2): BatchNorm1d(128, eps=1e-05, momentum=0.1, affine=True, track_running_stats=True)
      (dropout): Dropout(p=0.2, inplace=False)
    )
    (2): BasicBlock(
      (conv1): Conv1d(128, 128, kernel_size=(7,), stride=(1,), padding=(3,), bias=False)
      (bn1): BatchNorm1d(128, eps=1e-05, momentum=0.1, affine=True, track_running_stats=True)
      (relu): ReLU(inplace=True)
      (conv2): Conv1d(128, 128, kernel_size=(7,), stride=(1,), padding=(3,), bias=False)
      (bn2): BatchNorm1d(128, eps=1e-05, momentum=0.1, affine=True, track_running_stats=True)
      (dropout): Dropout(p=0.2, inplace=False)
    )
    (3): BasicBlock(
      (conv1): Conv1d(128, 128, kernel_size=(7,), stride=(1,), padding=(3,), bias=False)
      (bn1): BatchNorm1d(128, eps=1e-05, momentum=0.1, affine=True, track_running_stats=True)
      (relu): ReLU(inplace=True)
      (conv2): Conv1d(128, 128, kernel_size=(7,), stride=(1,), padding=(3,), bias=False)
      (bn2): BatchNorm1d(128, eps=1e-05, momentum=0.1, affine=True, track_running_stats=True)
      (dropout): Dropout(p=0.2, inplace=False)
    )
  )
  (layer3): Sequential(
    (0): BasicBlock(
      (conv1): Conv1d(128, 256, kernel_size=(7,), stride=(2,), padding=(3,), bias=False)
      (bn1): BatchNorm1d(256, eps=1e-05, momentum=0.1, affine=True, track_running_stats=True)
      (relu): ReLU(inplace=True)
      (conv2): Conv1d(256, 256, kernel_size=(7,), stride=(1,), padding=(3,), bias=False)
      (bn2): BatchNorm1d(256, eps=1e-05, momentum=0.1, affine=True, track_running_stats=True)
      (downsample): Sequential(
        (0): Conv1d(128, 256, kernel_size=(1,), stride=(2,), bias=False)
        (1): BatchNorm1d(256, eps=1e-05, momentum=0.1, affine=True, track_running_stats=True)
      )
      (dropout): Dropout(p=0.2, inplace=False)
    )
    (1): BasicBlock(
      (conv1): Conv1d(256, 256, kernel_size=(7,), stride=(1,), padding=(3,), bias=False)
      (bn1): BatchNorm1d(256, eps=1e-05, momentum=0.1, affine=True, track_running_stats=True)
      (relu): ReLU(inplace=True)
      (conv2): Conv1d(256, 256, kernel_size=(7,), stride=(1,), padding=(3,), bias=False)
      (bn2): BatchNorm1d(256, eps=1e-05, momentum=0.1, affine=True, track_running_stats=True)
      (dropout): Dropout(p=0.2, inplace=False)
    )
    (2): BasicBlock(
      (conv1): Conv1d(256, 256, kernel_size=(7,), stride=(1,), padding=(3,), bias=False)
      (bn1): BatchNorm1d(256, eps=1e-05, momentum=0.1, affine=True, track_running_stats=True)
      (relu): ReLU(inplace=True)
      (conv2): Conv1d(256, 256, kernel_size=(7,), stride=(1,), padding=(3,), bias=False)
      (bn2): BatchNorm1d(256, eps=1e-05, momentum=0.1, affine=True, track_running_stats=True)
      (dropout): Dropout(p=0.2, inplace=False)
    )
    (3): BasicBlock(
      (conv1): Conv1d(256, 256, kernel_size=(7,), stride=(1,), padding=(3,), bias=False)
      (bn1): BatchNorm1d(256, eps=1e-05, momentum=0.1, affine=True, track_running_stats=True)
      (relu): ReLU(inplace=True)
      (conv2): Conv1d(256, 256, kernel_size=(7,), stride=(1,), padding=(3,), bias=False)
      (bn2): BatchNorm1d(256, eps=1e-05, momentum=0.1, affine=True, track_running_stats=True)
      (dropout): Dropout(p=0.2, inplace=False)
    )
    (4): BasicBlock(
      (conv1): Conv1d(256, 256, kernel_size=(7,), stride=(1,), padding=(3,), bias=False)
      (bn1): BatchNorm1d(256, eps=1e-05, momentum=0.1, affine=True, track_running_stats=True)
      (relu): ReLU(inplace=True)
      (conv2): Conv1d(256, 256, kernel_size=(7,), stride=(1,), padding=(3,), bias=False)
      (bn2): BatchNorm1d(256, eps=1e-05, momentum=0.1, affine=True, track_running_stats=True)
      (dropout): Dropout(p=0.2, inplace=False)
    )
    (5): BasicBlock(
      (conv1): Conv1d(256, 256, kernel_size=(7,), stride=(1,), padding=(3,), bias=False)
      (bn1): BatchNorm1d(256, eps=1e-05, momentum=0.1, affine=True, track_running_stats=True)
      (relu): ReLU(inplace=True)
      (conv2): Conv1d(256, 256, kernel_size=(7,), stride=(1,), padding=(3,), bias=False)
      (bn2): BatchNorm1d(256, eps=1e-05, momentum=0.1, affine=True, track_running_stats=True)
      (dropout): Dropout(p=0.2, inplace=False)
    )
  )
  (layer4): Sequential(
    (0): BasicBlock(
      (conv1): Conv1d(256, 512, kernel_size=(7,), stride=(2,), padding=(3,), bias=False)
      (bn1): BatchNorm1d(512, eps=1e-05, momentum=0.1, affine=True, track_running_stats=True)
      (relu): ReLU(inplace=True)
      (conv2): Conv1d(512, 512, kernel_size=(7,), stride=(1,), padding=(3,), bias=False)
      (bn2): BatchNorm1d(512, eps=1e-05, momentum=0.1, affine=True, track_running_stats=True)
      (downsample): Sequential(
        (0): Conv1d(256, 512, kernel_size=(1,), stride=(2,), bias=False)
        (1): BatchNorm1d(512, eps=1e-05, momentum=0.1, affine=True, track_running_stats=True)
      )
      (dropout): Dropout(p=0.2, inplace=False)
    )
    (1): BasicBlock(
      (conv1): Conv1d(512, 512, kernel_size=(7,), stride=(1,), padding=(3,), bias=False)
      (bn1): BatchNorm1d(512, eps=1e-05, momentum=0.1, affine=True, track_running_stats=True)
      (relu): ReLU(inplace=True)
      (conv2): Conv1d(512, 512, kernel_size=(7,), stride=(1,), padding=(3,), bias=False)
      (bn2): BatchNorm1d(512, eps=1e-05, momentum=0.1, affine=True, track_running_stats=True)
      (dropout): Dropout(p=0.2, inplace=False)
    )
    (2): BasicBlock(
      (conv1): Conv1d(512, 512, kernel_size=(7,), stride=(1,), padding=(3,), bias=False)
      (bn1): BatchNorm1d(512, eps=1e-05, momentum=0.1, affine=True, track_running_stats=True)
      (relu): ReLU(inplace=True)
      (conv2): Conv1d(512, 512, kernel_size=(7,), stride=(1,), padding=(3,), bias=False)
      (bn2): BatchNorm1d(512, eps=1e-05, momentum=0.1, affine=True, track_running_stats=True)
      (dropout): Dropout(p=0.2, inplace=False)
    )
  )
  (avgpool): AdaptiveAvgPool1d(output_size=1)
  (fc): Linear(in_features=512, out_features=1, bias=True)
)  0%|          | 0/1000 [00:00<?, ?it/s]
train_datasize 91614 val_datasize 9633
100,loss:4.089e-01 
200,loss:2.585e-01 
300,loss:3.098e-01 
400,loss:2.838e-01 
500,loss:2.320e-01 
600,loss:4.406e-01 
700,loss:2.233e-01 
800,loss:3.364e-01 
900,loss:3.503e-01 
1000,loss:1.956e-01 
1100,loss:3.283e-01 
1200,loss:3.214e-01 
1300,loss:3.251e-01 
1400,loss:2.746e-01 
…
